model/keypoint_classifier/keypoint_classifier.tflite (tflite, 7000 bytes, 6 tensors)

sequential_1/dense_5/BiasAdd/ReadVariableOp f4 [15]
00000000: a4fd b2bf abe0 bcbe 4377 903f db64 643e
00000010: cdf4 e5bf 6a8d 233f 15a0 5e3f 4587 e23e
00000020: 10ca 833f 2225 0cbe 1585 493e 55de e93e
00000030: c366 8dbf 247a 98bc 042e 97bf
-1.3983655 -0.36890158 1.1286396 0.22304098 -1.7965332 0.63887656 0.86963016 0.44243827
1.029604 -0.1368604 0.19679673 0.45677438 -1.1046985 -0.018612929 -1.1810918

sequential_1/dense_4/BiasAdd/ReadVariableOp f4 [10]
00000000: fbb6 a53f c045 b83d bc56 543f cab4 5cbd
00000010: 8f1c c33f 4986 973f bbb0 0740 f4bb e23e
00000020: 0159 c3bc 1ea2 10bf
1.2946466 0.08997679 0.82944846 -0.05388335 1.524309 1.1837856 2.1201618 0.44284022
-0.023846151 -0.5649737

sequential_1/dense_3/BiasAdd/ReadVariableOp f4 [20]
00000000: efc8 a73e 12d2 89be f075 d63d 0985 3bbf
00000010: 947f fe3e 8263 6d3e b247 8cbe 7e31 8fbf
00000020: 7839 a9be f5d5 333f 08a5 2fbe 23a2 cdbf
00000030: 52fa 0a3f 967b 83bf 2ba5 143f b71f 87bf
00000040: 7afc 8bbf 3cc8 d3bf 1d56 93bf 95ac 90be
0.32770488 -0.26918083 0.104717135 -0.7324987 0.4970671 0.2318249 -0.2739845 -1.1186979
-0.33051658 0.7024835 -0.17152798 -1.6065105 0.5428821 -1.027209 0.58064526 -1.0556554
-1.0936425 -1.6545482 -1.1510655 -0.2825667

sequential_1/dense_3/MatMul f4 [20, 42]
00000000: d828 8e3d d454 773e d216 a33e c7a9 73bf
00000010: 4b02 503e 3f02 0dbe 8ef4 7f3e 1b2a 75bd
00000020: 019d 0f3e 9df5 c5bd 7447 713e 5aaa bb3c
00000030: c886 b33d 034f 443c 15c0 123e b01f 3abc
00000040: 68ce f93d 7701 f5bb 8918 0c3f 4c67 ad3c
00000050: c3c2 34bd 7159 f7bb 2d7a f3be 9978 90bd
00000060: f177 fbbe 75b3 19be 5eb4 273f 40ca 133d
00000070: e0df 37bc a932 843d 0e7d 95bf adf2 d43d
00000080: ffe5 bebf 382a 383e f3d6 39be f910 203d
00000090: cab3 efbe 8962 453d 3f68 a1bf db34 c93d
000000a0: 3d5b debf c675 533e e602 3b3e 68ef 4f3d
000000b0: d6e8 b73e 1851 9b3f fe17 f03d a957 993e
000000c0: 19e6 223e 3642 4a3e cd22 f33d eac6 5e3e
000000d0: 8326 7abd 1565 1f3d 9a78 51be 7576 743d
000000e0: a492 0ebe 30eb 253d 3916 15be b594 ec3c
000000f0: 6fe6 04bf 5f5c a93c feba 2dbd 616a 243d
00000100: 6e58 393e 76f5 173b 92b3 553e 66d9 33bd
00000110: e280 f7bf b3e3 e43c 7e93 06be 6bbb d1bb
00000120: 3b4a cc3e a968 dcbd afdc bf3e 7f13 2abf
00000130: 8fa8 3abf 50ba ef3b 9a1b f7bd 4719 e33c
00000140: 2dab 8b3e f94d 13be 30ed 203e fb96 94bf
00000150: 61aa 9cbe 0bde 7dbe 1d89 923e 199a ed3e
00000160: 6d60 923d 3bf2 0e3f dbc3 fc3d 2eba 993f
00000170: da0e a73d 633f b73f da23 79bd 63b3 0fbf
00000180: bd37 d3be b74f 26be 1dd1 64be 26bb 853e
00000190: 2b20 75be b6b7 9f3e 30bc c438 c47b 5dbe
000001a0: cd01 50bd 393b 27be 94ad a1be e0d0 063e
000001b0: 5f9c 25be d902 b83e 60b4 5c3e 13c9 d7be
000001c0: eca3 c83d 9683 87bd 24c6 2abe a4b9 813e
000001d0: a4e3 f93d 3088 1f3f 62c7 373e 2716 ebbc
000001e0: 2b06 053f f798 28be 3fb2 ba3e 2d0c 9f3e
000001f0: c539 c93e 56d3 4b3f 30dd 77bd a099 9e3e
00000200: 9d45 8f3e 69b8 623f 7b0c 3d3e 5f13 543e
00000210: c25c 233e 7cdd f73d e983 003e 3e88 b33d
00000220: 69e6 c13d 6a22 9a3d fa6b a63a 5938 813d
00000230: dbea 0ebe 0e9f 843c bcca 4dbe 1b1c 3fbc
00000240: 2061 30bd 627b 913d 55f9 0c3e 1f73 b63c
00000250: 9ca5 ae3d 895e 5cbd 5c9b 803d e992 bcbd
00000260: 3e2d 8dbf acfc 4d3d 22fe 703d 07ac 0a3c
00000270: 1b32 1e3f 0391 cabf 1630 133f 05c6 74bf
00000280: 389a 82be 4662 9e3d 7e0d fabc 93c3 7e3d
00000290: 39e3 38bd 745b 943d 55ec 7abd b5ec 373e
000002a0: b620 6fbe 8499 3b3e 8e19 403c 22ed a3bf
000002b0: 300a bf3d 3d4f e4be 40b2 91bd d1f0 c7be
000002c0: 0b33 c1bd 407a 3fbf ac9c 703e 1946 d3bd
000002d0: b724 063f 9002 44bc 8ec8 063f 76a1 c23c
000002e0: ffa0 f23e e317 bb3d cf0d 383f 89a6 0fbd
000002f0: df17 0dbc 3929 f83c 8423 2dbe 46cb 563d
00000300: eb7c f3bd ae3c ff3d 727b d53f 9a09 463d
00000310: a2e4 6f3d 0246 073e 4689 76be 0721 333e
00000320: f8b4 a4be 427b 803e 8e84 283f e7db d43d
00000330: 5be3 ff3c 1c25 333e 5445 a6be 7d0f 9c3e
00000340: 4131 c3be 865f 903e c8b5 e5bd be6c 823e
00000350: 2a1d 68bd e3dc e43e 4d1f b3be e1f3 8f3e
00000360: b76d 52bf 4d3a c33e 9f4e 90bf 90af b73d
00000370: 7e89 b23d abbd ddbd c85c fabd 9c29 f7b8
00000380: 374a 21bd e25e 47be d347 dbbd 95ff 7abe
00000390: f9e6 393e 7da4 363b aa34 29be bb43 873d
000003a0: 8985 94be 03ae 823e 46f0 88be 2e0d d63e
000003b0: c899 2c3f 94fd d53d 8dfb 45bf f7d4 d53d
000003c0: ae0b 50bf b3d4 283e eeb5 45bf 5c46 833e
000003d0: 2cf3 5f3e 32b3 dd3d ff6b 24bf ed1f df3d
000003e0: c47c 0bbf 364f 2c3e c081 85bf 8b09 883e
000003f0: 50e1 693d 248c a33d d7f7 8abe 645f 8e3e
0.06941384 0.24153453 0.31853348 -0.95180935 0.20313375 -0.13770388 0.24995634 -0.059854608
0.14024736 -0.09665988 0.23562413 0.022908378 0.08765942 0.0119817285 0.14331086 -0.011360094
0.12197572 -0.0074769813 0.5472494 0.02116742 -0.04413105 -0.007548504 -0.4755415 -0.07054252
-0.49114946 -0.15009864 0.65509593 0.036081553 -0.01122281 0.06454975 -1.1678789 0.10397849
-1.4913939 0.17984855 -0.18148403 0.039078686 -0.46816856 0.048189674 -1.2609938 0.098245345
-1.7371594 0.20650396 0.18262824 0.050765425 0.35919827 1.2134123 0.11723326 0.29949692
0.15908088 0.1975182 0.11871872 0.21755567 -0.061071884 0.03891476 -0.20456162 0.059683282
-0.13923126 0.040507495 -0.14559259 0.028879503 -0.51914114 0.020673929 -0.042414658 0.040140513
0.1810014 0.0023187078 0.20869282 -0.0439085 -1.9336207 0.027940607 -0.13142201 -0.006400516
0.39900383 -0.1076215 0.37473056 -0.66436 -0.7291345 0.0073159114 -0.120658115 0.027722014
0.27279034 -0.14385213 0.1571548 -1.1608576 -0.3059874 -0.24791734 0.28620234 0.4640663
0.07147298 0.55838364 0.12342044 1.2009943 0.081571296 1.4316219 -0.060825206 -0.561331
-0.41253462 -0.16241346 -0.22345395 0.26119345 -0.23938052 0.31194848 9.381061e-05 -0.21629244
-0.050782967 -0.16331185 -0.31577742 0.13165617 -0.16172932 0.35939673 0.21553183 -0.42145595
0.097968906 -0.06616895 -0.16677147 0.25336945 0.12201622 0.6231718 0.17947152 -0.028697086
0.51962537 -0.16464601 0.36464116 0.31063977 0.39301887 0.7961935 -0.060513675 0.30976582
0.27982798 0.8856264 0.18461792 0.20710514 0.15953353 0.12102792 0.1255032 0.087662205
0.094677754 0.07526095 0.0012696974 0.063095756 -0.13956778 0.016189124 -0.20096868 -0.011664416
-0.043061376 0.071036115 0.13766988 0.02227169 0.08527681 -0.053801093 0.062796324 -0.092077084
-1.1029432 0.050289795 0.05883611 0.008463866 0.61795205 -1.5825504 0.5749525 -0.95614654
-0.25508285 0.07733588 -0.030524012 0.062198233 -0.04513857 0.07244006 -0.06126054 0.1796139
-0.23352322 0.1832028 0.011724843 -1.2806742 0.09328115 -0.44591704 -0.071140766 -0.39050916
-0.09433564 -0.74795914 0.23497266 -0.103161044 0.5239977 -0.011963502 0.5264977 0.023758631
0.47388455 0.091354154 0.7189607 -0.03507093 -0.008611648 0.030293094 -0.1690808 0.05243995
-0.118890606 0.124627456 1.6678298 0.048349 0.05856765 0.132103 -0.24075803 0.17493068
-0.32169318 0.25094038 0.6582726 0.103935055 0.031236341 0.17494625 -0.32474768 0.30480567
-0.38123515 0.2819788 -0.11216313 0.2547359 -0.056668438 0.44699773 -0.34984818 0.28115752
-0.8219866 0.38130417 -1.1273993 0.08969033 0.08717631 -0.10827192 -0.12224728 -0.00011785628
-0.039377417 -0.19469789 -0.10707059 -0.2451156 0.18154515 0.0027869039 -0.16523996 0.066047154
-0.2900813 0.25523385 -0.26745814 0.4180693 0.6742215 0.10448757 -0.7733696 0.104410104
-0.8126782 0.16487388 -0.7723073 0.25639617 0.21870106 0.108251944 -0.6422729 0.10894761
-0.5448725 0.16827092 -1.0430222 0.2656978 0.05709964 0.07985714 -0.27142212 0.27807152

sequential_1/dense_4/MatMul f4 [10, 20]
00000000: 1127 6ebe 76fb 46be d3ff 86bf 8adf b73e
00000010: 2255 ff3e 1eb4 0fbf 223d 213e 7cd7 023e
00000020: b4dd c6be 8f0c be3f e102 f0bd ec25 423e
00000030: 1ca7 9f3d 9c2e f43c 3fe1 1b3f e084 44bf
00000040: 212a eebd 6b74 c2bf fdc5 8cbf 1d6f a3bf
00000050: 97ef 843f 345c 69bd 1266 94be 0d80 833e
00000060: 775d 143f 9582 083f fba4 7e3f c278 f63d
00000070: 4fce 8fbe b900 93be a437 4f3e db62 273f
00000080: 306e 603e b20b 003d 1b39 3a3e 74b0 c2bd
00000090: ad71 af3f fe25 2040 8f80 df3f 10ef 4b3f
000000a0: a636 b73e 8540 323f 9727 06bf 3a1c 81be
000000b0: d065 3abf ac08 843f c885 673f 1dbe a73d
000000c0: b255 d23d 8e1d a03f 4a65 ab3f b1a6 d3be
000000d0: f7f3 79bd 4680 aa3e 50ca 5d3e 08ab 20bf
000000e0: 7a10 3e3f 8a2d 50bf 161c f73e 9349 453f
000000f0: 90fc af3e d8dc db3f 208d bbbe 8820 f23f
00000100: de9c 9bbf dec2 a13e fbbd 353e 467f b93d
00000110: c86d 26bd 4837 d5bf 665b 303f f757 26be
00000120: 5a45 59be b8ce 3f3e 539d 36bd f3b0 d03d
00000130: 1f1a 2c3e ddc1 083f 13b5 8a3d 9a06 873e
00000140: 1228 0fbe 41eb 5f3f 1976 7bbe 505a 9f3f
00000150: f30d 60bf 572f 6dbf 6128 1e3e 7431 3b3f
00000160: 218b 1d3d 3481 13bf 0b15 2d3e a948 003f
00000170: ac52 463f 8310 9b3e 9573 af3d 0ff0 e63e
00000180: bbc1 1f3e d64b 32be d64f 403d 27db bebf
00000190: d259 7b3d 28e8 303f 656b 05bf 5469 123f
000001a0: 4cee e43e 210c 4abe d46d 17be c65c 2dbe
000001b0: e012 41be 6d07 dcbe c38d a73f 010a 093f
000001c0: d5c5 703f e582 a53e c4c7 5b3f c0e0 e7bd
000001d0: 0d88 803e a426 793e 9385 c53e a21f 82be
000001e0: f14b 163f 4e3c 42bc a9fa 82be 38de 483e
000001f0: a799 953e d72f 31bd 264f 7abf e76a 083f
00000200: 52c5 b2bf 6c02 4ebe e8eb d3bf a012 a1bf
00000210: 492f 1f3e 5c84 05c0 775a 673d 6fbc ab3e
00000220: 8cc1 94bd 502c 13bd cc54 a1be 9ce1 a1bf
00000230: a2ca 35bf eae9 b83e f4c5 113e a49c 063e
00000240: e04e 8e3e 1ba9 e73e 4610 1b3f abae 913f
00000250: a4d9 bb3f 90d1 2f3f f9b9 95be fbf9 e93f
00000260: 4346 1cbf 21d0 e43f a578 a0bf 0378 c13f
00000270: eaf9 203f aa03 813f 5fb4 0f3f cef2 183f
00000280: 2f20 8b3f 1b4c 383e da36 8d3f a2e3 cdbd
00000290: 05e6 7c3f d94e a23e bcc4 2abe 447b 483e
000002a0: 0c3f 583f 0671 193f 7677 623f d731 813e
000002b0: 5d1e f13e a53b 4abd da95 453f 74c3 3b3f
000002c0: 5210 36bf 48b2 bb3e 7fa4 923e 848e a53d
000002d0: 4d20 a53f 0079 8d3e 4e2c d93e 6127 cb3f
000002e0: ed3c d53e 8342 493f e485 123f 272f 9abd
000002f0: 885b e8be 33b2 963e 7b5a bc3e f277 aa3e
00000300: df6b 4d3f 9867 c93e f823 643f dd2f 883d
00000310: fb5b c03b 8de4 d53d 3048 0bbc f274 a83e
-0.2325709 -0.19431862 -1.0546821 0.35912734 0.4986964 -0.5613421 0.15745977 0.12777513
-0.3884102 1.4847583 -0.11719299 0.18959779 0.077955455 0.029807381 0.60890573 -0.7676525
-0.11629129 -1.5191778 -1.0997921 -1.2768284 1.0385617 -0.056972697 -0.28984123 0.25683632
0.57955116 0.5332425 0.9947049 0.120347515 -0.28087088 -0.2871149 0.20236069 0.65385216
0.21917033 0.031261154 0.18185847 -0.09506312 1.3706566 2.5023189 1.7461108 0.79661655
0.3578388 0.696297 -0.5240416 -0.25216848 -0.72811604 1.0315146 0.9043851 0.08190558
0.10270251 1.2509019 1.3390286 -0.41338113 -0.06102368 0.3330099 0.21659207 -0.6276097
0.7424389 -0.8131949 0.48263615 0.7706539 0.34372377 1.7176771 -0.36631107 1.8916178
-1.2157247 0.31593984 0.17748253 0.090574786 -0.04063204 -1.6657495 0.6888946 -0.16244493
-0.21217862 0.187312 -0.04458363 0.101900004 0.1680684 0.5342081 0.067728184 0.26372224
-0.1398013 0.87468344 -0.2455677 1.2449436 -0.87521285 -0.9265036 0.15445091 0.73122334
0.03846276 -0.57619023 0.16902559 0.5011087 0.774699 0.30286035 0.085669674 0.45105025
0.15601246 -0.17411742 0.046951137 -1.491063 0.061364956 0.6910424 -0.52116996 0.5719197
0.44713056 -0.1973119 -0.1478799 -0.16929922 -0.18854856 -0.42974415 1.3090137 0.5353089
0.9405187 0.32326427 0.85851693 -0.113221645 0.25103799 0.24331146 0.38578472 -0.2541476
0.5870963 -0.011855198 -0.25581864 0.1961602 0.2921879 -0.043258514 -0.9777702 0.5328812
-1.3966467 -0.20118111 -1.6556368 -1.2583809 0.15545382 -2.0862036 0.05648276 0.335422
-0.07263479 -0.03593093 -0.31510007 -1.2646976 -0.7101232 0.36115962 0.1423567 0.13145691
0.27794552 0.45246205 0.60571706 1.138143 1.4675794 0.6867914 -0.29243448 1.8279413
-0.6104471 1.7876016 -1.2536818 1.511475 0.6288134 1.0079243 0.561346 0.5974549
1.0869197 0.17997782 1.1032364 -0.10053183 0.9878848 0.3170078 -0.1667661 0.19578272
0.844712 0.59938085 0.8846353 0.25233337 0.47093478 -0.049373288 0.7718178 0.7334511
-0.7111865 0.36659455 0.28641126 0.08083823 1.2900482 0.27631378 0.42416614 1.5871392
0.41648045 0.78617114 0.5723555 -0.07528525 -0.45382333 0.2943283 0.3678778 0.33294636
0.80242723 0.39336848 0.89117384 0.06649754 0.00587034 0.10443983 -0.008501098 0.32901722

sequential_1/dense_5/MatMul f4 [15, 10]
00000000: 45d1 04be ea5a 30bf 361e 9cba 5cda 943e
00000010: 7a92 973d 610d 0ebf 2470 4ebf 4aaf b93e
00000020: e153 633f 02d7 793f 287d c1be 85ff f93e
00000030: 5b1e 53bf d52a 10bf f704 a4bd 8b75 81be
00000040: fa77 22bf 18f9 2b3f 9c84 9fbe 2a4e 54bf
00000050: 6fe7 93be 4b11 2c3f e54a 1a3f 1a1e 1bbf
00000060: 106a 65bf 3502 063e afc4 87bf 5fbe 6bbf
00000070: 8c27 5bbe 2a8e f83e 3d86 d23e 7879 efbf
00000080: 7376 13bf c49d 253f 89e3 353f ac06 8dbc
00000090: 3e9d 443f f2bc 58bf 36ee cabf b73f adbe
000000a0: 5894 a4be 07a7 3b3f 4e3b 993e 46e0 773f
000000b0: b9e5 f1be 5cfd 8bbe 5877 55bf 9f6b 15bf
000000c0: 5bc2 a33d 3385 363e cd58 4ebf 2257 543e
000000d0: bc9a 4ebf 7999 6a3e 9d8c 1a3f 4d87 cd3e
000000e0: 3b80 0cbf 95db a83e a4ac 2dbf ef1d 2dbe
000000f0: 96bc 3b3f 921d 3fc0 06ad 6cbf e10e 16c0
00000100: cd04 d7bc 0419 b9be 8a73 a23f 9be3 bebe
00000110: 369c 6e3e d316 c3bf 4125 b2be 3b0c 0fbf
00000120: 9b82 a03f d0bb f1bc e5a0 fabe f985 7bbf
00000130: 79ae 97be f020 043f bd3d 80bf 927d 11bf
00000140: 6439 2b3e a697 433f 26ac c83e a76d 27bf
00000150: ad9a a3be d8a5 6ebf 5309 803f 4cb1 77bf
00000160: 58a3 50be e2b6 6dbf 92a3 80bf 0e94 afbe
00000170: 50aa 87be 03fb fcbd f7fd 383f 0186 633f
00000180: 751b 7abf 1847 593d e39d 003f 1923 8fbf
00000190: 43ca a6be a48d 083f 6e9b b0be fae7 9ebf
000001a0: 4f31 27bf 35e8 82bf a4ed efbe f5d8 773f
000001b0: ae79 ccbe 8f14 f2bd 616e 673f 7d32 cebe
000001c0: 06b9 f73e 88ef 0e3e c79f 283f 2826 da3e
000001d0: 46eb a8bf 0be0 e4be 5abf 92bf 095c 4fbb
000001e0: d0da 36be 5a97 60be 28c5 63be 50cd edbe
000001f0: a65e 17bf 1959 f2bf 9f25 0cbf 2878 1c3f
00000200: a743 3d3f 6348 343f 47d5 883f a100 f1bf
00000210: 9fda 1cbf abf5 0cc0 db7d c8bd 4e92 aabd
00000220: fcf1 813f 4d43 9abf c376 1d3f 715c 15bf
00000230: 0acc 05bd 6e71 2a3f 8776 1fbe caa4 bc3e
00000240: 8f9d 2ebf c3dc 903e cd14 b5bf a7ea 74be
00000250: 6370 39be 6c9d 373f
-0.12970455 -0.68888724 -0.0011910859 0.29072845 0.07400985 -0.55489165 -0.80639863 0.36266547
0.88799864 0.975937 -0.377908 0.48827758 -0.82468194 -0.56315356 -0.080087595 -0.2528499
-0.6346432 0.6717696 -0.3115586 -0.8293177 -0.28887507 0.67213887 0.6027053 -0.60592806
-0.89614964 0.1308678 -1.0606898 -0.9208736 -0.21401805 0.48545963 0.4111804 -1.8708944
-0.57602614 0.64693856 0.71050316 -0.017215095 0.7680243 -0.8466331 -1.5853946 -0.33837673
-0.32144427 0.7330174 0.29928058 0.9682659 -0.47245577 -0.27341735 -0.8338523 -0.5836734
0.07996055 0.17824249 -0.8060425 0.20736364 -0.80704856 0.22910108 0.6037081 0.4014229
-0.54883164 0.32980028 -0.67841554 -0.1690595 0.73334634 -2.9861798 -0.9245151 -2.3446581
-0.026247406 -0.36151898 1.269151 -0.37283024 0.23301777 -1.524134 -0.34794047 -0.5587804
1.2539858 -0.029508501 -0.48950878 -0.982513 -0.296253 0.5161276 -1.0018841 -0.5683223
0.16721112 0.7640327 0.3919384 -0.6540169 -0.31953946 -0.9322181 1.0002846 -0.9675491
-0.2037481 -0.9285718 -1.0049918 -0.34292644 -0.26497126 -0.12352564 0.7226252 0.8887635
-0.97698146 0.053046316 0.50240916 -1.1182586 -0.32576188 0.53341126 -0.34493583 -1.2414544
-0.65309614 -1.0227114 -0.46860993 0.96815425 -0.39936584 -0.118203275 0.904028 -0.40272895
0.4838335 0.13958561 0.658688 0.42607236 -1.31968 -0.4470218 -1.1464646 -0.003164055
-0.17856908 -0.21932736 -0.22243178 -0.46445704 -0.591288 -1.893344 -0.54744905 0.61120844
0.73931354 0.70422953 1.0690087 -1.8828317 -0.6127109 -2.2024944 -0.0978963 -0.08328687
1.0151973 -1.2051789 0.6150934 -0.5834418 -0.03266529 0.6657933 -0.15572558 0.36844474
-0.68209165 0.28293428 -1.4146973 -0.23917638 -0.18109278 0.7172458
