model/keypoint_classifier/keypoint_classifier.tflite (tflite, 6496 bytes, 6 tensors)

dense_2/bias f4 [6]
000000 0f 29 9a 3c 98 c1 1b bf 91 e3 33 3f 97 26 3b bf
       0.018818406 -0.60842276 0.70269114 -0.7310576
000010 a5 e2 84 3e 1d 06 fc 3e
       0.25954166 0.49223414

dense_1/bias f4 [10]
000000 ca 54 85 3e 1c 1e d2 3e 56 f9 9a be 41 01 82 3e
       0.2604125 0.41038597 -0.30268353 0.25391582
000010 26 eb b4 3e 68 c1 60 3e a2 7c fc bb 24 37 78 be
       0.35335654 0.21948779 -0.007705287 -0.24239784
000020 25 16 94 3e ea fe 9a 3e
       0.28923145 0.3027261

dense/bias f4 [20]
000000 b7 70 f1 be 1b 69 f0 3e 9f 6f 3a be 10 9a db 3e
       -0.47156307 0.4695519 -0.18206643 0.42890978
000010 7f fb 81 3e 32 9e d6 be e6 e5 ae 3e ce e4 d3 3e
       0.2538719 -0.41917568 0.34159774 0.41385502
000020 a0 80 28 bf f7 2e f6 3e 96 bf d5 be 92 5f ea be
       -0.65821266 0.48082706 -0.4174773 -0.4577604
000030 b7 67 c4 3e 6d cc ba 3e 93 96 02 bd 39 12 7e 3e
       0.38360378 0.3648409 -0.03188188 0.24811639
000040 d3 94 12 bf af 87 de be ef 66 ef be ad 87 be 3e
       -0.5725834 -0.43462893 -0.4675822 0.37212887

sequential/dense/MatMul f4 [20, 42]
000000 93 d9 7e be bc 79 d1 3d 47 6a f2 3d 2b 25 9f be
       -0.24887685 0.10228297 0.11836677 -0.31083044
000010 e4 84 a3 bc 48 0e f1 be 93 e9 08 3f 01 44 33 be
       -0.019960828 -0.47081208 0.53481406 -0.1750641
000020 95 39 20 3f 47 bf 0a be af 51 9a be d3 57 2e be
       0.62587863 -0.13549529 -0.30140445 -0.1702569
000030 35 1b 6a be d9 bf 31 bd 6a a8 88 be ee b5 55 3e
       -0.22861941 -0.04339585 -0.2669099 0.20870182
000040 5e 23 87 be 6c f7 31 3e 7d 16 7c be 0b e0 de 3c
       -0.2639417 0.1737954 -0.24617954 0.027206441
000050 40 4c af be df 2e 4a bd 67 e7 32 bd 63 25 a6 3d
       -0.34237862 -0.049361106 -0.043677714 0.081126
000060 9a 99 de 3c ec 4d b4 3d c5 fb 43 be a4 6c 25 be
       0.027172852 0.08803925 -0.19139011 -0.16154724
000070 5e 45 cd 3c 2c 5b 98 bc 2a d8 90 3e bb e5 55 be
       0.02505749 -0.018598162 0.2828992 -0.20888416
000080 fc 09 85 3e e6 f9 8c be a4 b6 e6 3e b1 ba 96 be
       0.2598418 -0.27534407 0.4506122 -0.2943931
000090 8a 29 90 3e 76 e6 59 bd 5c a8 d8 3e 64 a4 2b be
       0.28156692 -0.0531983 0.42315948 -0.16761929
0000a0 ac 49 86 3e 8b b6 7d bd 80 e2 79 3e 97 48 94 be
       0.26228082 -0.061941665 0.24402809 -0.28961632
0000b0 e7 53 0d bf 03 d7 7c be f9 be ba be eb e9 db bd
       -0.5520615 -0.24691395 -0.36473826 -0.10737976
0000c0 c4 07 47 bf 2c ae 0c be ed a5 9f be fd 1a 19 bf
       -0.77746224 -0.13738316 -0.3118128 -0.59806806
0000d0 5f 3a b4 bd a0 b5 b3 bd b7 c6 d3 3d 91 18 85 bd
       -0.08800196 -0.087748766 0.10340636 -0.06498826
0000e0 62 49 98 3e b7 ac 02 3e af 9a 96 3e 2e ce 21 3e
       0.29743487 0.12761198 0.2941489 0.15801308
0000f0 da ea 14 3e 47 5f d6 3b f3 21 4d be 2a 7f d6 3d
       0.14542714 0.0065421197 -0.20032482 0.10473473
000100 15 48 8f 3d 4e b4 04 bd 79 7d 2d 3d cc 92 34 3e
       0.069961704 -0.032398514 0.04235599 0.17634124
000110 d1 b2 87 3e 2c 39 3a 3e 80 1f 56 3e ea 11 3e 3e
       0.26503614 0.18185872 0.20910454 0.18561521
000120 14 f3 8e 3d 53 96 82 3e 59 de 6f 3e 28 e4 7b 3e
       0.06979957 0.25505313 0.23424663 0.24598753
000130 a0 5c e6 bd fb fe 85 3e 34 ea 8a 3d c7 12 52 3e
       -0.112481356 0.26171097 0.06782952 0.20514975
000140 63 81 29 be c9 95 41 3e c3 54 92 bd ef 69 a9 3e
       -0.16553263 0.18904795 -0.07145073 0.33088633
000150 7c 40 8b be e6 53 85 3e e5 9b be be 5a 92 54 3e
       -0.27197635 0.26040572 -0.37228313 0.20758954
000160 91 c2 7f be 9a 76 b7 3d 16 3f 42 bf 1d be 43 be
       -0.24976565 0.08958168 -0.7587751 -0.19115491
000170 46 d9 88 bf 31 d7 5d be da ed f5 3d eb 2d 95 be
       -1.0691307 -0.2166412 0.12008257 -0.29136595
000180 76 eb 1e 3f 3f 24 12 be dc 10 fd 3e 4b d1 05 3d
       0.62078035 -0.1427164 0.49426925 0.0326703
000190 4b ae d8 3e 67 cf 58 bc 37 db d4 3e 9d 4e 1c be
       0.42320475 -0.013233042 0.41573498 -0.15264364
0001a0 96 a7 c6 3e ec db c2 bd 68 6d dd bd 0b 1e 68 3e
       0.38799733 -0.09514603 -0.10811883 0.2266771
0001b0 74 b8 93 be 9a 2a 85 3e 63 8a a0 3e 88 4e 03 be
       -0.28851664 0.26009065 0.3135558 -0.12822926
0001c0 e5 79 71 3e 1f 68 26 3c 59 26 a5 be 38 4e 42 3d
       0.23581655 0.01015666 -0.3225582 0.047437876
0001d0 e3 0c ac be 80 16 cb 3d 5a db 45 be 92 43 ff bc
       -0.33603582 0.09916401 -0.19321957 -0.03116015
0001e0 a4 61 66 bd 94 d6 c5 bd 20 7f 7f be 71 4c c9 bd
       -0.05624546 -0.09660068 -0.24950838 -0.09829033
0001f0 37 19 2e bf 88 34 b6 3a 50 2b 66 3e e4 4d 65 3e
       -0.68007225 0.0013901154 0.2247746 0.22392994
000200 b7 e4 06 3f 32 cb 0b be 7c 28 54 3e 15 f4 bc be
       0.5269274 -0.13651732 0.20718569 -0.3690497
000210 49 95 96 3e 6c d9 98 be a3 63 f0 bd 0a 99 c7 bd
       0.2941077 -0.2985338 -0.11737754 -0.09745987
000220 9b 28 1a 3f d8 57 d1 3d 69 c0 40 3e d5 64 f7 3d
       0.6021821 0.10221833 0.18823399 0.12079779
000230 92 e2 0a 3e b1 06 58 be 8c f7 6f 3e fe 7a 90 bd
       0.13562992 -0.21096303 0.23434275 -0.07054709
000240 9b 2e ac bc 0a ee af 3c 58 ff 97 3e b2 eb bb bd
       -0.021018317 0.02147581 0.29687 -0.09175815
000250 b6 40 1b 3e c4 e1 c1 bc 7f 55 03 3e 79 7a f4 bd
       0.15161404 -0.023667224 0.12825583 -0.11937422
000260 e1 92 2d be 94 86 22 3e ee bb 96 be 52 62 11 3e
       -0.16950561 0.1587165 -0.29440254 0.14197662
000270 96 3c fe bc 18 51 3a 3e 3d f0 9c be 38 2a 34 3e
       -0.031034749 0.18194997 -0.30652037 0.1759423
000280 b3 e4 82 be 72 68 a6 3c 01 22 c0 be 64 8c 3a 3e
       -0.2556511 0.020313475 -0.37525943 0.18217617
000290 5b a2 8e be 79 56 55 3e 51 17 ca be 8a 9c 66 3e
       -0.27858242 0.20833768 -0.39470914 0.22520652
0002a0 10 b4 cb 3c f8 37 54 3d 81 76 f1 3e 87 6c c6 bd
       0.024866134 0.05181119 0.47160724 -0.09688669
0002b0 75 8a bd 3e ff fe e8 3d 2a da cf bb 44 05 10 be
       0.37019697 0.11376762 -0.006343146 -0.14064509
0002c0 dd 2a e6 3c 68 5e 98 3b c5 63 19 bd 02 ad 3e bd
       0.02809661 0.004649926 -0.037448663 -0.04655171
0002d0 e5 c9 cd be 93 74 b6 3d db d3 94 be 8b 81 85 3d
       -0.40193096 0.089089535 -0.29067883 0.06518849
0002e0 45 4a 0b 3b d2 99 77 3e 56 e3 25 bd af f5 9d 3e
       0.0021253985 0.24179772 -0.040500008 0.30851504
0002f0 3b 0f c2 be 56 03 60 3e 4b 09 c4 be b1 1a 86 3e
       -0.37902245 0.21876273 -0.3828834 0.2619224
000300 48 ec 02 bf e0 1f af 3c 56 01 e3 be cb 4c bc 3e
       -0.51141787 0.021377504 -0.44336957 0.36777338
000310 e9 4f 03 be c7 b6 7d 3e 6e 76 a0 be d1 2d b3 3e
       -0.12823452 0.24776755 -0.31340355 0.34995893
000320 5e e4 2e 3b 57 e9 9d 3e 98 2b c0 be c6 9b be 3e
       0.002668641 0.30842087 -0.3753326 0.3722822
000330 05 0e b8 be ac 9c 93 3e 62 7c 40 bd e5 6d a7 3e
       -0.35948196 0.2883047 -0.04699362 0.3270103
000340 c3 99 12 bc ec 6b d1 3d 49 46 91 be fe b1 83 3e
       -0.008947792 0.102256626 -0.28373936 0.25721735
000350 c9 d2 9c 3d 53 a2 44 be a2 a6 d8 3d 9a 91 18 be
       0.076573916 -0.19202547 0.10578658 -0.14899293
000360 6f e3 54 3d cd 82 b0 be d4 cb 0b 3f 58 24 90 be
       0.05197471 -0.34474793 0.5460789 -0.28152728
000370 d5 78 03 bf 38 a3 b7 bd 72 ee fe bd 77 3e a6 3d
       -0.5135625 -0.089666784 -0.124478236 0.08117383
000380 ad e0 92 be f5 55 57 3e 03 f4 1c be 66 f3 ef 3d
       -0.2868704 0.21028884 -0.15327458 0.117163464
000390 df 55 85 bd 90 29 68 be a3 f9 88 be 9a c1 d8 bd
       -0.06510519 -0.22672105 -0.26752958 -0.105838016
0003a0 7d bf 12 3d 5c 6b 04 3e 53 b9 d9 3d f5 05 4e 3e
       0.03582715 0.1293158 0.10631051 0.2011946
0003b0 c0 fd 51 be aa e6 8a be 18 94 68 bd 12 83 58 be
       -0.20506954 -0.27129108 -0.05678186 -0.2114375
0003c0 db d4 81 3e ef 40 20 bd 7a a0 af 3e 69 42 14 3d
       0.25357708 -0.039124426 0.3430212 0.036196146
0003d0 61 64 4b 3d f8 a1 40 be c8 74 a6 3d 89 53 1b be
       0.049656276 -0.18811786 0.08127743 -0.15168585
0003e0 ba c5 92 3e 82 11 3d bd f6 ab 01 3f c6 78 0a be
       0.28666478 -0.046159275 0.50653017 -0.13522634
0003f0 f8 0f 33 be 40 d8 63 3e 67 7e 29 3f 9f 35 11 bd
       -0.1748656 0.22250462 0.662085 -0.035451528

sequential/dense_1/MatMul f4 [10, 20]
000000 1d 04 4e 3e 63 fc ea 3e 6d 1b cb 3e 95 c5 da 3e
       0.20118757 0.4589568 0.39669362 0.42728868
000010 df 35 26 be fe 7b df 3e 19 30 92 be f6 12 d5 3e
       -0.16231488 0.43649286 -0.2855232 0.4161603
000020 02 94 d7 3d 08 6f f5 be 07 b7 2f 3f b5 65 0e 3f
       0.10526277 -0.47936273 0.6863865 0.5562394
000030 ec ba 7b 3e 8f 9c 1c be c0 46 1a be 9c f8 cf be
       0.24583024 -0.15294097 -0.15066051 -0.4061936
000040 92 ed 8e be d6 1f 42 3d 0a e3 f7 be 9e af c9 3a
       -0.27915627 0.047393642 -0.48415405 0.0015387421
000050 cf 71 0d 3c cc 03 bc be ee bf 12 3f 24 08 a2 be
       0.008633091 -0.36721647 0.5732411 -0.31646836
000060 93 af 34 bf d5 e0 8e bd 3b fa 8a be ab f7 23 bf
       -0.70580405 -0.06976477 -0.27144036 -0.64049786
000070 66 02 02 3f 0f b5 7b be 19 83 93 be af ed 24 bf
       0.5078491 -0.24580787 -0.28810957 -0.64425176
000080 a4 2e 3c 3e 4e 5e 7e be f5 43 3b 3f 84 46 1e bf
       0.18377167 -0.24840662 0.7315057 -0.6182635
000090 7e ce 46 3d 8c 88 5e 3f ea 7d b8 3e 50 e9 59 bf
       0.04853677 0.86927104 0.36033565 -0.8512163
0000a0 6e 13 b0 3e 12 fc d2 bc 0c 52 4d 3e 13 0e 82 3e
       0.34389824 -0.025754962 0.2005083 0.25401363
0000b0 80 3a 94 be 41 fc c3 3e bf e2 0b 3e 1c 88 c5 3e
       -0.28950882 0.38278392 0.13660716 0.38580406
0000c0 2b c3 55 3f 0f dd 18 bf 56 b4 38 3f 0a 7a 7e 3f
       0.8350093 -0.5971231 0.7215017 0.99404967
0000d0 2e ce d3 3e 15 16 95 bd 34 33 d8 be fd 9d 3b be
       0.4136824 -0.072796024 -0.42226565 -0.18321986
0000e0 ab b4 f3 3e 5a da 01 be a1 4f 46 3e cb 4a bb be
       0.47598776 -0.12680951 0.19366314 -0.365805
0000f0 33 4e 6c 3f 16 94 be be 42 c9 95 3e cb 09 12 bf
       0.9230682 -0.37222356 0.2925511 -0.5704619
000100 4d ac e6 be c9 3f 22 3f 11 82 91 be ec 89 9b be
       -0.4505333 0.6337858 -0.28419545 -0.30378664
000110 86 6e 7f 3e 75 59 5c be 59 e6 08 3f ba 7b e5 3e
       0.24944505 -0.215185 0.5347648 0.44820958
000120 ee 59 6a be 6c e0 f6 be 65 d9 a8 3d 93 e9 f7 be
       -0.22885868 -0.48218095 0.0824459 -0.4842039
000130 f9 82 46 3e e4 2e df 3d 10 ec a5 3e 04 51 e3 be
       0.193859 0.108976156 0.32406664 -0.44397748
000140 1e fc e2 bc d9 b9 50 3d 3d 10 74 bb 76 8b 79 3e
       -0.02770811 0.050958488 -0.0037241124 0.24369606
000150 10 51 48 3e 57 0d 07 bd 69 99 12 3e 12 c7 33 3f
       0.19562173 -0.032971706 0.14316334 0.7022563
000160 e8 9c 49 bf 00 8d fd 3e c6 a7 96 3e 54 5d f2 3e
       -0.78755045 0.49521637 0.29424876 0.4733683
000170 44 90 06 3e f6 cb 5d 3e 21 ef 60 be cc f2 4a be
       0.1314097 0.21659836 -0.2196622 -0.19819182
000180 9e 05 5a 3d 68 4c ef be d8 75 68 3e da 6d ec 3e
       0.053228013 -0.4673798 0.22701204 0.4617756
000190 e8 0d 1d bf 77 f0 cb 3e 4a 12 bb 3e 68 33 f2 3d
       -0.61349344 0.39831898 0.3653739 0.11826211
0001a0 fb 92 6c be f4 a9 14 bf ab 13 68 3e 33 ed dd 3e
       -0.23102944 -0.5807183 0.22663753 0.4334503
0001b0 ed b1 41 be a9 f5 0a be b9 e1 10 be a4 83 be be
       -0.1891553 -0.13570274 -0.14148606 -0.3720981
0001c0 ca 46 10 3f 3b eb 15 3f 0e d1 05 3f c6 da c2 3e
       0.56358016 0.5856206 0.5227212 0.38057536
0001d0 8d 4d ea 3e e9 96 b6 3e 15 43 a5 3e 64 29 c2 3e
       0.45762292 0.3566201 0.32277742 0.37922204
0001e0 0b ee ab bc 0e ee f4 3e 47 14 4d 3f 03 4e 36 3f
       -0.020987531 0.4783787 0.80109066 0.71212786
0001f0 8b ef 3a be 49 61 c0 bd 8e 61 13 be 56 16 24 bd
       -0.18255441 -0.09393556 -0.14392683 -0.040060364
000200 4e 9f 33 3d b4 0d 92 bd 5b aa 2a 3e 17 4f be 3e
       0.043853097 -0.0713152 0.16666548 0.37169716
000210 f8 31 5b 3f d4 3e a0 be 45 fa 51 3d 94 f0 c1 bb
       0.8562312 -0.31297934 0.051264066 -0.0059185717
000220 78 84 a4 3e de 6b 2e 3e 32 09 e9 be 7b 0a cf be
       0.32132316 0.17033336 -0.45514828 -0.40437683
000230 69 a8 c7 be ad 60 82 3e c5 d0 0f 3f 9f 8e 1c 3e
       -0.38995674 0.25464383 0.5617793 0.1528878
000240 d8 e3 c0 3e 3d 53 d2 be 9a cc cb 3e 42 5f 27 3e
       0.3767383 -0.4107913 0.39804536 0.16344932
000250 08 23 2a 3e f4 3b e6 3e 0e 8d 3d 3e 9a d5 51 3e
       0.16614926 0.44967616 0.1851084 0.20491639
000260 9b af e8 3d 17 35 d2 3e 32 fb 51 3d 22 8c 2c 3f
       0.11361619 0.4105613 0.05126495 0.67401326
000270 1f 21 04 3f 51 3d 95 3e 51 c0 71 3f 81 21 8c 3e
       0.5161304 0.29148343 0.94434077 0.2736931
000280 1e f3 b0 be eb 18 b7 3d 8e f2 37 bd cc 99 f7 3d
       -0.34560484 0.089402996 -0.044909053 0.12089881
000290 f0 fb 41 3f 28 61 a2 be 2a 94 f1 3e 83 6e 8b 3d
       0.7577505 -0.3171475 0.47183353 0.06808188
0002a0 ad 05 35 be a3 6c 6e 3e af 00 19 3d 10 4f 5d be
       -0.17677946 0.23283629 0.037354168 -0.21612191
0002b0 5d 57 83 3e 23 fd bc bd 85 b7 aa bd 65 77 aa 3e
       0.2565259 -0.092279695 -0.08335785 0.33294216
0002c0 e8 08 b5 3d 91 4d b3 3c 7e 61 50 3e df 83 f4 bd
       0.08839589 0.021887572 0.2034969 -0.11939215
0002d0 e1 b8 1a bd 93 75 5a 3f 1c c1 89 3d 5a 28 32 3f
       -0.03777397 0.85335654 0.06726286 0.6959282
0002e0 43 cb bc 3e d0 6d e9 bd b0 e2 06 3f c6 9a 35 3f
       0.36873826 -0.11397898 0.5268965 0.7093929
0002f0 f5 8e ed bd f7 b1 1b 3f e0 18 2b 3f 3f fa 49 be
       -0.115995325 0.6081843 0.6683483 -0.19724368
000300 fe b9 bf bd 9d d4 00 3f 7c 99 c4 3d da 2a 0f 3f
       -0.09361647 0.5032442 0.09599587 0.5592476
000310 f2 41 35 be 6d 15 82 bc 76 5e 24 be c3 44 23 3f
       -0.17700937 -0.015879357 -0.16051659 0.637768

sequential/dense_2/MatMul f4 [6, 10]
000000 95 e1 06 bf 03 b4 82 bf 39 97 0f bf 6f 14 5a bf
       -0.5268796 -1.0211185 -0.5609012 -0.8518743
000010 3b 88 72 3f cf 19 15 3f 39 2e 08 3e 09 e1 1a 3f
       0.9473912 0.58242506 0.13298883 0.60499626
000020 3f 0b 52 3f 76 8c 5e 3f 87 75 47 3f 4a 4b bd be
       0.8204841 0.86933076 0.7791371 -0.36971503
000030 d5 22 0b 3e cb 18 15 bd ea 46 96 be 54 1b 43 bf
       0.13587506 -0.036400598 -0.29350978 -0.76213574
000040 33 cb 1e 3f ce bc b2 bd 56 2a 6a 3d f7 55 21 3f
       0.6202881 -0.08727418 0.05716928 0.63021797
000050 f0 f3 91 be 51 57 60 3f 81 29 54 bf 72 05 bf 3e
       -0.28506422 0.87633234 -0.8287583 0.37308842
000060 8d dd 2c bf 14 a1 05 bf 59 95 a1 bf 79 a2 f1 be
       -0.6752556 -0.5219891 -1.2623702 -0.4719427
000070 d3 2d 05 be 84 7d 9c be 0b 43 78 bf 25 16 2a 3f
       -0.13005762 -0.3056451 -0.969773 0.6644004
000080 b4 11 18 be 35 16 4a be bb 86 e0 be 55 63 cc 3e
       -0.14850503 -0.19735034 -0.4385279 0.39919534
000090 82 af 96 3e 98 16 29 3f 47 f4 04 be 2b d1 91 bf
       0.29430777 0.660501 -0.1298381 -1.1391958
0000a0 1d f2 0d 3e b2 5c b2 3e d6 67 71 bf a5 e0 23 bf
       0.1386189 0.34836346 -0.94299066 -0.64014655
0000b0 15 47 84 bf 80 ef e2 3e 31 64 34 3f f5 03 03 be
       -1.0334193 0.4432335 0.7046538 -0.12794478
0000c0 49 86 ae 3e ec 84 87 be 34 1b 2b 3e 8e ec eb be
       0.34086826 -0.264686 0.16709596 -0.46078914
0000d0 78 19 cc 3e 88 4e be 3e 13 b9 0d 3c ad 93 3b bf
       0.3986318 0.3716929 0.008650082 -0.7327221
0000e0 7b a1 4f bf 88 bb 9d 3e a6 6b 60 be 95 e1 03 bf
       -0.81105775 0.30807137 -0.21916065 -0.51516086
